…

 Dataset split complete!
(.venv) PS C:\Users\admin\Downloads\DATASET> python data_loaders.py
(.venv) PS C:\Users\admin\Downloads\DATASET> python data_loaders.py
Number of classes: 21
Train batches: 1662
Val batches: 357
Test batches: 357

Batch shape: torch.Size([16, 3, 224, 224])
Labels shape: torch.Size([16])
(.venv) PS C:\Users\admin\Downloads\DATASET> python models.py
(.venv) PS C:\Users\admin\Downloads\DATASET> python models.py
model.safetensors: 100%|██████████████████████████| 21.4M/21.4M [00:05<00:00, 4.00MB/s]
RiceClassifier(
  (backbone): EfficientNet(
    (conv_stem): Conv2d(3, 32, kernel_size=(3, 3), stride=(2, 2), padding=(1, 1), bias=False)
    (bn1): BatchNormAct2d(
      32, eps=1e-05, momentum=0.1, affine=True, track_running_stats=True
      (drop): Identity()
      (act): SiLU(inplace=True)
    )
    (blocks): Sequential(
      (0): Sequential(
        (0): DepthwiseSeparableConv(
          (conv_dw): Conv2d(32, 32, kernel_size=(3, 3), stride=(1, 1), padding=(1, 1), groups=32, bias=False)
          (bn1): BatchNormAct2d(
            32, eps=1e-05, momentum=0.1, affine=True, track_running_stats=True
            (drop): Identity()
            (act): SiLU(inplace=True)
          )
          (aa): Identity()
          (se): SqueezeExcite(
            (conv_reduce): Conv2d(32, 8, kernel_size=(1, 1), stride=(1, 1))
            (act1): SiLU(inplace=True)
            (conv_expand): Conv2d(8, 32, kernel_size=(1, 1), stride=(1, 1))
            (gate): Sigmoid()
          )
          (conv_pw): Conv2d(32, 16, kernel_size=(1, 1), stride=(1, 1), bias=False)      
          (bn2): BatchNormAct2d(
            16, eps=1e-05, momentum=0.1, affine=True, track_running_stats=True
            (drop): Identity()
            (act): Identity()
          )
          (drop_path): Identity()
        )
      )
      (1): Sequential(
        (0): InvertedResidual(
          (conv_pw): Conv2d(16, 96, kernel_size=(1, 1), stride=(1, 1), bias=False)      
          (bn1): BatchNormAct2d(
            96, eps=1e-05, momentum=0.1, affine=True, track_running_stats=True
            (drop): Identity()
            (act): SiLU(inplace=True)
          )
          (conv_dw): Conv2d(96, 96, kernel_size=(3, 3), stride=(2, 2), padding=(1, 1), groups=96, bias=False)
          (bn2): BatchNormAct2d(
            96, eps=1e-05, momentum=0.1, affine=True, track_running_stats=True
            (drop): Identity()
            (act): SiLU(inplace=True)
          )
          (aa): Identity()
          (se): SqueezeExcite(
            (conv_reduce): Conv2d(96, 4, kernel_size=(1, 1), stride=(1, 1))
            (act1): SiLU(inplace=True)
            (conv_expand): Conv2d(4, 96, kernel_size=(1, 1), stride=(1, 1))
            (gate): Sigmoid()
          )
          (conv_pwl): Conv2d(96, 24, kernel_size=(1, 1), stride=(1, 1), bias=False)     
          (bn3): BatchNormAct2d(
            24, eps=1e-05, momentum=0.1, affine=True, track_running_stats=True
            (drop): Identity()
            (act): Identity()
          )
          (drop_path): Identity()
        )
        (1): InvertedResidual(
          (conv_pw): Conv2d(24, 144, kernel_size=(1, 1), stride=(1, 1), bias=False)     
          (bn1): BatchNormAct2d(
            144, eps=1e-05, momentum=0.1, affine=True, track_running_stats=True
            (drop): Identity()
            (act): SiLU(inplace=True)
          )
          (conv_dw): Conv2d(144, 144, kernel_size=(3, 3), stride=(1, 1), padding=(1, 1), groups=144, bias=False)
          (bn2): BatchNormAct2d(
            144, eps=1e-05, momentum=0.1, affine=True, track_running_stats=True
            (drop): Identity()
            (act): SiLU(inplace=True)
          )
          (aa): Identity()
          (se): SqueezeExcite(
            (conv_reduce): Conv2d(144, 6, kernel_size=(1, 1), stride=(1, 1))
            (act1): SiLU(inplace=True)
            (conv_expand): Conv2d(6, 144, kernel_size=(1, 1), stride=(1, 1))
            (gate): Sigmoid()
          )
          (conv_pwl): Conv2d(144, 24, kernel_size=(1, 1), stride=(1, 1), bias=False)    
          (bn3): BatchNormAct2d(
            24, eps=1e-05, momentum=0.1, affine=True, track_running_stats=True
            (drop): Identity()
            (act): Identity()
          )
          (drop_path): Identity()
        )
      )
      (2): Sequential(
        (0): InvertedResidual(
          (conv_pw): Conv2d(24, 144, kernel_size=(1, 1), stride=(1, 1), bias=False)     
          (bn1): BatchNormAct2d(
            144, eps=1e-05, momentum=0.1, affine=True, track_running_stats=True
            (drop): Identity()
            (act): SiLU(inplace=True)
          )
          (conv_dw): Conv2d(144, 144, kernel_size=(5, 5), stride=(2, 2), padding=(2, 2), groups=144, bias=False)
          (bn2): BatchNormAct2d(
            144, eps=1e-05, momentum=0.1, affine=True, track_running_stats=True
            (drop): Identity()
            (act): SiLU(inplace=True)
          )
          (aa): Identity()
          (se): SqueezeExcite(
            (conv_reduce): Conv2d(144, 6, kernel_size=(1, 1), stride=(1, 1))
            (act1): SiLU(inplace=True)
            (conv_expand): Conv2d(6, 144, kernel_size=(1, 1), stride=(1, 1))
            (gate): Sigmoid()
          )
          (conv_pwl): Conv2d(144, 40, kernel_size=(1, 1), stride=(1, 1), bias=False)    
          (bn3): BatchNormAct2d(
            40, eps=1e-05, momentum=0.1, affine=True, track_running_stats=True
            (drop): Identity()
            (act): Identity()
          )
          (drop_path): Identity()
        )
        (1): InvertedResidual(
          (conv_pw): Conv2d(40, 240, kernel_size=(1, 1), stride=(1, 1), bias=False)     
          (bn1): BatchNormAct2d(
            240, eps=1e-05, momentum=0.1, affine=True, track_running_stats=True
            (drop): Identity()
            (act): SiLU(inplace=True)
          )
          (conv_dw): Conv2d(240, 240, kernel_size=(5, 5), stride=(1, 1), padding=(2, 2), groups=240, bias=False)
          (bn2): BatchNormAct2d(
            240, eps=1e-05, momentum=0.1, affine=True, track_running_stats=True
            (drop): Identity()
            (act): SiLU(inplace=True)
          )
          (aa): Identity()
          (se): SqueezeExcite(
            (conv_reduce): Conv2d(240, 10, kernel_size=(1, 1), stride=(1, 1))
            (act1): SiLU(inplace=True)
            (conv_expand): Conv2d(10, 240, kernel_size=(1, 1), stride=(1, 1))
            (gate): Sigmoid()
          )
          (conv_pwl): Conv2d(240, 40, kernel_size=(1, 1), stride=(1, 1), bias=False)    
          (bn3): BatchNormAct2d(
            40, eps=1e-05, momentum=0.1, affine=True, track_running_stats=True
            (drop): Identity()
            (act): Identity()
          )
          (drop_path): Identity()
        )
      )
      (3): Sequential(
        (0): InvertedResidual(
          (conv_pw): Conv2d(40, 240, kernel_size=(1, 1), stride=(1, 1), bias=False)     
          (bn1): BatchNormAct2d(
            240, eps=1e-05, momentum=0.1, affine=True, track_running_stats=True
            (drop): Identity()
            (act): SiLU(inplace=True)
          )
          (conv_dw): Conv2d(240, 240, kernel_size=(3, 3), stride=(2, 2), padding=(1, 1), groups=240, bias=False)
          (bn2): BatchNormAct2d(
            240, eps=1e-05, momentum=0.1, affine=True, track_running_stats=True
            (drop): Identity()
            (act): SiLU(inplace=True)
          )
          (aa): Identity()
          (se): SqueezeExcite(
            (conv_reduce): Conv2d(240, 10, kernel_size=(1, 1), stride=(1, 1))
            (act1): SiLU(inplace=True)
            (conv_expand): Conv2d(10, 240, kernel_size=(1, 1), stride=(1, 1))
            (gate): Sigmoid()
          )
          (conv_pwl): Conv2d(240, 80, kernel_size=(1, 1), stride=(1, 1), bias=False)    
          (bn3): BatchNormAct2d(
            80, eps=1e-05, momentum=0.1, affine=True, track_running_stats=True
            (drop): Identity()
            (act): Identity()
          )
          (drop_path): Identity()
        )
        (1): InvertedResidual(
          (conv_pw): Conv2d(80, 480, kernel_size=(1, 1), stride=(1, 1), bias=False)     
          (bn1): BatchNormAct2d(
            480, eps=1e-05, momentum=0.1, affine=True, track_running_stats=True
            (drop): Identity()
            (act): SiLU(inplace=True)
          )
          (conv_dw): Conv2d(480, 480, kernel_size=(3, 3), stride=(1, 1), padding=(1, 1), groups=480, bias=False)
          (bn2): BatchNormAct2d(
            480, eps=1e-05, momentum=0.1, affine=True, track_running_stats=True
            (drop): Identity()
            (act): SiLU(inplace=True)
          )
          (aa): Identity()
          (se): SqueezeExcite(
            (conv_reduce): Conv2d(480, 20, kernel_size=(1, 1), stride=(1, 1))
            (act1): SiLU(inplace=True)
            (conv_expand): Conv2d(20, 480, kernel_size=(1, 1), stride=(1, 1))
            (gate): Sigmoid()
          )
          (conv_pwl): Conv2d(480, 80, kernel_size=(1, 1), stride=(1, 1), bias=False)    
          (bn3): BatchNormAct2d(
            80, eps=1e-05, momentum=0.1, affine=True, track_running_stats=True
            (drop): Identity()
            (act): Identity()
          )
          (drop_path): Identity()
        )
        (2): InvertedResidual(
          (conv_pw): Conv2d(80, 480, kernel_size=(1, 1), stride=(1, 1), bias=False)     
          (bn1): BatchNormAct2d(
            480, eps=1e-05, momentum=0.1, affine=True, track_running_stats=True
            (drop): Identity()
            (act): SiLU(inplace=True)
          )
          (conv_dw): Conv2d(480, 480, kernel_size=(3, 3), stride=(1, 1), padding=(1, 1), groups=480, bias=False)
          (bn2): BatchNormAct2d(
            480, eps=1e-05, momentum=0.1, affine=True, track_running_stats=True
            (drop): Identity()
            (act): SiLU(inplace=True)
          )
          (aa): Identity()
          (se): SqueezeExcite(
            (conv_reduce): Conv2d(480, 20, kernel_size=(1, 1), stride=(1, 1))
            (act1): SiLU(inplace=True)
            (conv_expand): Conv2d(20, 480, kernel_size=(1, 1), stride=(1, 1))
            (gate): Sigmoid()
          )
          (conv_pwl): Conv2d(480, 80, kernel_size=(1, 1), stride=(1, 1), bias=False)    
          (bn3): BatchNormAct2d(
            80, eps=1e-05, momentum=0.1, affine=True, track_running_stats=True
            (drop): Identity()
            (act): Identity()
          )
          (drop_path): Identity()
        )
      )
      (4): Sequential(
        (0): InvertedResidual(
          (conv_pw): Conv2d(80, 480, kernel_size=(1, 1), stride=(1, 1), bias=False)     
          (bn1): BatchNormAct2d(
            480, eps=1e-05, momentum=0.1, affine=True, track_running_stats=True
            (drop): Identity()
            (act): SiLU(inplace=True)
          )
          (conv_dw): Conv2d(480, 480, kernel_size=(5, 5), stride=(1, 1), padding=(2, 2), groups=480, bias=False)
          (bn2): BatchNormAct2d(
            480, eps=1e-05, momentum=0.1, affine=True, track_running_stats=True
            (drop): Identity()
            (act): SiLU(inplace=True)
          )
          (aa): Identity()
          (se): SqueezeExcite(
            (conv_reduce): Conv2d(480, 20, kernel_size=(1, 1), stride=(1, 1))
            (act1): SiLU(inplace=True)
            (conv_expand): Conv2d(20, 480, kernel_size=(1, 1), stride=(1, 1))
            (gate): Sigmoid()
          )
          (conv_pwl): Conv2d(480, 112, kernel_size=(1, 1), stride=(1, 1), bias=False)   
          (bn3): BatchNormAct2d(
            112, eps=1e-05, momentum=0.1, affine=True, track_running_stats=True
            (drop): Identity()
            (act): Identity()
          )
          (drop_path): Identity()
        )
        (1): InvertedResidual(
          (conv_pw): Conv2d(112, 672, kernel_size=(1, 1), stride=(1, 1), bias=False)    
          (bn1): BatchNormAct2d(
            672, eps=1e-05, momentum=0.1, affine=True, track_running_stats=True
            (drop): Identity()
            (act): SiLU(inplace=True)
          )
          (conv_dw): Conv2d(672, 672, kernel_size=(5, 5), stride=(1, 1), padding=(2, 2), groups=672, bias=False)
          (bn2): BatchNormAct2d(
            672, eps=1e-05, momentum=0.1, affine=True, track_running_stats=True
            (drop): Identity()
            (act): SiLU(inplace=True)
          )
          (aa): Identity()
          (se): SqueezeExcite(
            (conv_reduce): Conv2d(672, 28, kernel_size=(1, 1), stride=(1, 1))
            (act1): SiLU(inplace=True)
            (conv_expand): Conv2d(28, 672, kernel_size=(1, 1), stride=(1, 1))
            (gate): Sigmoid()
          )
          (conv_pwl): Conv2d(672, 112, kernel_size=(1, 1), stride=(1, 1), bias=False)   
          (bn3): BatchNormAct2d(
            112, eps=1e-05, momentum=0.1, affine=True, track_running_stats=True
            (drop): Identity()
            (act): Identity()
          )
          (drop_path): Identity()
        )
        (2): InvertedResidual(
          (conv_pw): Conv2d(112, 672, kernel_size=(1, 1), stride=(1, 1), bias=False)    
          (bn1): BatchNormAct2d(
            672, eps=1e-05, momentum=0.1, affine=True, track_running_stats=True
            (drop): Identity()
            (act): SiLU(inplace=True)
          )
          (conv_dw): Conv2d(672, 672, kernel_size=(5, 5), stride=(1, 1), padding=(2, 2), groups=672, bias=False)
          (bn2): BatchNormAct2d(
            672, eps=1e-05, momentum=0.1, affine=True, track_running_stats=True
            (drop): Identity()
            (act): SiLU(inplace=True)
          )
          (aa): Identity()
          (se): SqueezeExcite(
            (conv_reduce): Conv2d(672, 28, kernel_size=(1, 1), stride=(1, 1))
            (act1): SiLU(inplace=True)
            (conv_expand): Conv2d(28, 672, kernel_size=(1, 1), stride=(1, 1))
            (gate): Sigmoid()
          )
          (conv_pwl): Conv2d(672, 112, kernel_size=(1, 1), stride=(1, 1), bias=False)   
          (bn3): BatchNormAct2d(
            112, eps=1e-05, momentum=0.1, affine=True, track_running_stats=True
            (drop): Identity()
            (act): Identity()
          )
          (drop_path): Identity()
        )
      )
      (5): Sequential(
        (0): InvertedResidual(
          (conv_pw): Conv2d(112, 672, kernel_size=(1, 1), stride=(1, 1), bias=False)    
          (bn1): BatchNormAct2d(
            672, eps=1e-05, momentum=0.1, affine=True, track_running_stats=True
            (drop): Identity()
            (act): SiLU(inplace=True)
          )
          (conv_dw): Conv2d(672, 672, kernel_size=(5, 5), stride=(2, 2), padding=(2, 2), groups=672, bias=False)
          (bn2): BatchNormAct2d(
            672, eps=1e-05, momentum=0.1, affine=True, track_running_stats=True
            (drop): Identity()
            (act): SiLU(inplace=True)
          )
          (aa): Identity()
          (se): SqueezeExcite(
            (conv_reduce): Conv2d(672, 28, kernel_size=(1, 1), stride=(1, 1))
            (act1): SiLU(inplace=True)
            (conv_expand): Conv2d(28, 672, kernel_size=(1, 1), stride=(1, 1))
            (gate): Sigmoid()
          )
          (conv_pwl): Conv2d(672, 192, kernel_size=(1, 1), stride=(1, 1), bias=False)   
          (bn3): BatchNormAct2d(
            192, eps=1e-05, momentum=0.1, affine=True, track_running_stats=True
            (drop): Identity()
            (act): Identity()
          )
          (drop_path): Identity()
        )
        (1): InvertedResidual(
          (conv_pw): Conv2d(192, 1152, kernel_size=(1, 1), stride=(1, 1), bias=False)   
          (bn1): BatchNormAct2d(
            1152, eps=1e-05, momentum=0.1, affine=True, track_running_stats=True        
            (drop): Identity()
            (act): SiLU(inplace=True)
          )
          (conv_dw): Conv2d(1152, 1152, kernel_size=(5, 5), stride=(1, 1), padding=(2, 2), groups=1152, bias=False)
          (bn2): BatchNormAct2d(
            1152, eps=1e-05, momentum=0.1, affine=True, track_running_stats=True        
            (drop): Identity()
            (act): SiLU(inplace=True)
          )
          (aa): Identity()
          (se): SqueezeExcite(
            (conv_reduce): Conv2d(1152, 48, kernel_size=(1, 1), stride=(1, 1))
            (act1): SiLU(inplace=True)
            (conv_expand): Conv2d(48, 1152, kernel_size=(1, 1), stride=(1, 1))
            (gate): Sigmoid()
          )
          (conv_pwl): Conv2d(1152, 192, kernel_size=(1, 1), stride=(1, 1), bias=False)  
          (bn3): BatchNormAct2d(
            192, eps=1e-05, momentum=0.1, affine=True, track_running_stats=True
            (drop): Identity()
            (act): Identity()
          )
          (drop_path): Identity()
        )
        (2): InvertedResidual(
          (conv_pw): Conv2d(192, 1152, kernel_size=(1, 1), stride=(1, 1), bias=False)   
          (bn1): BatchNormAct2d(
            1152, eps=1e-05, momentum=0.1, affine=True, track_running_stats=True        
            (drop): Identity()
            (act): SiLU(inplace=True)
          )
          (conv_dw): Conv2d(1152, 1152, kernel_size=(5, 5), stride=(1, 1), padding=(2, 2), groups=1152, bias=False)
          (bn2): BatchNormAct2d(
            1152, eps=1e-05, momentum=0.1, affine=True, track_running_stats=True        
            (drop): Identity()
            (act): SiLU(inplace=True)
          )
          (aa): Identity()
          (se): SqueezeExcite(
            (conv_reduce): Conv2d(1152, 48, kernel_size=(1, 1), stride=(1, 1))
            (act1): SiLU(inplace=True)
            (conv_expand): Conv2d(48, 1152, kernel_size=(1, 1), stride=(1, 1))
            (gate): Sigmoid()
          )
          (conv_pwl): Conv2d(1152, 192, kernel_size=(1, 1), stride=(1, 1), bias=False)  
          (bn3): BatchNormAct2d(
            192, eps=1e-05, momentum=0.1, affine=True, track_running_stats=True
            (drop): Identity()
            (act): Identity()
          )
          (drop_path): Identity()
        )
        (3): InvertedResidual(
          (conv_pw): Conv2d(192, 1152, kernel_size=(1, 1), stride=(1, 1), bias=False)   
          (bn1): BatchNormAct2d(
            1152, eps=1e-05, momentum=0.1, affine=True, track_running_stats=True        
            (drop): Identity()
            (act): SiLU(inplace=True)
          )
          (conv_dw): Conv2d(1152, 1152, kernel_size=(5, 5), stride=(1, 1), padding=(2, 2), groups=1152, bias=False)
          (bn2): BatchNormAct2d(
            1152, eps=1e-05, momentum=0.1, affine=True, track_running_stats=True        
            (drop): Identity()
            (act): SiLU(inplace=True)
          )
          (aa): Identity()
          (se): SqueezeExcite(
            (conv_reduce): Conv2d(1152, 48, kernel_size=(1, 1), stride=(1, 1))
            (act1): SiLU(inplace=True)
            (conv_expand): Conv2d(48, 1152, kernel_size=(1, 1), stride=(1, 1))
            (gate): Sigmoid()
          )
          (conv_pwl): Conv2d(1152, 192, kernel_size=(1, 1), stride=(1, 1), bias=False)  
          (bn3): BatchNormAct2d(
            192, eps=1e-05, momentum=0.1, affine=True, track_running_stats=True
            (drop): Identity()
            (act): Identity()
          )
          (drop_path): Identity()
        )
      )
      (6): Sequential(
        (0): InvertedResidual(
          (conv_pw): Conv2d(192, 1152, kernel_size=(1, 1), stride=(1, 1), bias=False)   
          (bn1): BatchNormAct2d(
            1152, eps=1e-05, momentum=0.1, affine=True, track_running_stats=True        
            (drop): Identity()
            (act): SiLU(inplace=True)
          )
          (conv_dw): Conv2d(1152, 1152, kernel_size=(3, 3), stride=(1, 1), padding=(1, 1), groups=1152, bias=False)
          (bn2): BatchNormAct2d(
            1152, eps=1e-05, momentum=0.1, affine=True, track_running_stats=True        
            (drop): Identity()
            (act): SiLU(inplace=True)
          )
          (aa): Identity()
          (se): SqueezeExcite(
            (conv_reduce): Conv2d(1152, 48, kernel_size=(1, 1), stride=(1, 1))
            (act1): SiLU(inplace=True)
            (conv_expand): Conv2d(48, 1152, kernel_size=(1, 1), stride=(1, 1))
            (gate): Sigmoid()
          )
          (conv_pwl): Conv2d(1152, 320, kernel_size=(1, 1), stride=(1, 1), bias=False)  
          (bn3): BatchNormAct2d(
            320, eps=1e-05, momentum=0.1, affine=True, track_running_stats=True
            (drop): Identity()
            (act): Identity()
          )
          (drop_path): Identity()
        )
      )
    )
    (conv_head): Conv2d(320, 1280, kernel_size=(1, 1), stride=(1, 1), bias=False)       
    (bn2): BatchNormAct2d(
      1280, eps=1e-05, momentum=0.1, affine=True, track_running_stats=True
      (drop): Identity()
      (act): SiLU(inplace=True)
    )
    (global_pool): SelectAdaptivePool2d(pool_type=avg, flatten=Flatten(start_dim=1, end_dim=-1))
    (classifier): Identity()
  )
  (classifier): Sequential(
    (0): Dropout(p=0.3, inplace=False)
    (1): Linear(in_features=1280, out_features=512, bias=True)
    (2): ReLU()
    (3): Dropout(p=0.2, inplace=False)
    (4): Linear(in_features=512, out_features=20, bias=True)
  )
)

Output shape: torch.Size([2, 20])







(.venv) PS C:\Users\admin\Downloads\DATASET> python npk_preprocessing.py
>>
================================================================================
LOADING DATA
================================================================================

Dataset shape: (2200, 8)
Features: ['N', 'P', 'K', 'temperature', 'humidity', 'ph', 'rainfall', 'label']
…
